…
	batch_size: 64
	num_epochs: 30
	dropout_prob: 0.7
	learning_rate: 0.001
	num_classes: 5
	use_data_augmentation: True
	use_xavier_init: True
	use_batch_norm: True
	use_lr_scheduler: False
	seed: 123
}
device: cuda:0
number of samples:
train: 25000
val: 1000
loading train dataset from pickle file..
loading val dataset from pickle file..
initializing model params with xavier initialization
-----------------------------------------------------------------------------------------
model:
-----------------------------------------------------------------------------------------
TrafficSignsConvNet(
  (conv1): Conv2d(3, 6, kernel_size=(5, 5), stride=(1, 1))
  (relu1): ReLU()
  (pool1): MaxPool2d(kernel_size=2, stride=2, padding=0, dilation=1, ceil_mode=False)
  (dropout1): Dropout2d(p=0.7)
  (batchnorm1): BatchNorm2d(6, eps=1e-05, momentum=0.1, affine=True, track_running_stats=True)
  (conv2): Conv2d(6, 12, kernel_size=(5, 5), stride=(1, 1))
  (relu2): ReLU()
  (pool2): MaxPool2d(kernel_size=2, stride=2, padding=0, dilation=1, ceil_mode=False)
  (dropout2): Dropout2d(p=0.7)
  (batchnorm2): BatchNorm2d(12, eps=1e-05, momentum=0.1, affine=True, track_running_stats=True)
  (conv3): Conv2d(12, 18, kernel_size=(5, 5), stride=(1, 1))
  (relu3): ReLU()
  (pool3): MaxPool2d(kernel_size=2, stride=2, padding=0, dilation=1, ceil_mode=False)
  (dropout3): Dropout2d(p=0.7)
  (batchnorm3): BatchNorm2d(18, eps=1e-05, momentum=0.1, affine=True, track_running_stats=True)
  (conv4): Conv2d(18, 24, kernel_size=(5, 5), stride=(1, 1))
  (relu4): ReLU()
  (pool4): MaxPool2d(kernel_size=2, stride=2, padding=0, dilation=1, ceil_mode=False)
  (dropout4): Dropout2d(p=0.7)
  (batchnorm4): BatchNorm2d(24, eps=1e-05, momentum=0.1, affine=True, track_running_stats=True)
  (fc1): Linear(in_features=384, out_features=256, bias=True)
  (reluf1): ReLU()
  (batchnormfc1): BatchNorm1d(256, eps=1e-05, momentum=0.1, affine=True, track_running_stats=True)
  (fc2): Linear(in_features=256, out_features=64, bias=True)
  (reluf2): ReLU()
  (batchnormfc2): BatchNorm1d(64, eps=1e-05, momentum=0.1, affine=True, track_running_stats=True)
  (fc3): Linear(in_features=64, out_features=5, bias=True)
)
-----------------------------------------------------------------------------------------
number of trainable params: 134603
-----------------------------------------------------------------------------------------
training..
[Epoch 1/30] loss: 1.6644, acc: 20.34 %
	(val) loss: 1.6107, acc: 20.00 %

    - found new best validation accuracy

Checkpoint Directory does not exist! Making directory models/adam_batchnorm_dataaug_xavier_dropout0.7
…
